mnist_best_model_20241221_012216.pth (torch, 97180 bytes, 44 tensors)

Layer1.0.weight f4 [8, 1, 3, 3]
000000 7f 53 28 bf 41 b0 08 be af 4b bf 3e 72 41 a0 bd
       -0.65752405 -0.13348486 0.3736243 -0.07824983
000010 a1 56 12 3f 31 b3 84 3e 8e 91 3e 3e 8f b9 18 be
       0.57163435 0.25917962 0.18610212 -0.14914535
000020 ed 5c e5 be f5 84 8c bd fa 6f a7 3e f9 48 ad 3e
       -0.4479746 -0.06861297 0.3270262 0.33844736
000030 ef 9c 08 bf 17 8e 3d bf 58 ab f8 3b c4 f0 e5 3e
       -0.5336446 -0.74044937 0.007588785 0.44910252
000040 c3 c4 c1 bd f0 e6 fb be c3 2d 41 be d8 e0 09 bf
       -0.094613574 -0.4919963 -0.18865113 -0.5385871
000050 40 f3 9c be e2 e2 80 3e c2 54 16 bc 1f cb 4e 3d
       -0.30654335 0.25173098 -0.009175481 0.05048668
000060 91 16 20 3e 66 5f e8 3e 33 dd 11 3f a3 2e 9d 3d
       0.15633608 0.45385283 0.5697815 0.07674911
000070 9f 28 1b be b3 45 ac 3e b7 83 dc 3e a7 cc 08 3f
       -0.15152214 0.33646926 0.4306924 0.53437275
000080 bf 6a 15 3f fb 78 85 be 7c a0 0a bf 8f d5 eb be
       0.58366007 -0.26068863 -0.5415113 -0.4606137
000090 35 28 61 bd 65 29 b2 3e fb c0 0b 3e f4 27 63 be
       -0.054969985 0.34797207 0.13647835 -0.2218321
0000a0 97 73 82 3e 81 4c 96 3d 4e b9 7d bd 25 75 eb 3e
       0.25478813 0.07338811 -0.0619443 0.45987812
0000b0 39 e7 9a 3e a7 d2 a2 3d e9 17 36 3e 68 2f bb 3d
       0.30254534 0.07950335 0.17782559 0.091399014
0000c0 55 ec a6 be e8 2c df bc d4 bf 08 3f a5 43 04 bf
       -0.32602182 -0.027243093 0.53417706 -0.5166572
0000d0 0e 9e f5 be 5c 41 17 3f b1 5c dd 3e 0c 91 05 bf
       -0.4797215 0.59084105 0.4323478 -0.5217445
0000e0 98 1d 04 bf a1 5f 15 3f a8 5a a7 3e d2 65 4e be
       -0.51607656 0.58349043 0.32686353 -0.20156029
0000f0 3c 03 25 bd 06 c6 e9 3e 93 5a b4 3e 90 fa be be
       -0.040286288 0.45658892 0.35225353 -0.3730054
000100 8b aa 06 3e 92 85 65 3e a7 9a 01 bf 42 06 2e be
       0.13150994 0.22414234 -0.50626606 -0.16994575
000110 f8 55 08 3e 3b 41 a3 be 58 37 15 bf 37 de 72 be
       0.13314044 -0.31885704 -0.5828757 -0.2371758

Layer1.0.bias f4 [8]
000000 e5 41 6d 3e c9 9e bf 3c dd 7f a8 be b1 94 f1 be
       0.23169668 0.023391144 -0.32910052 -0.47183755
000010 d4 84 81 be 82 f6 d4 be 1b 96 3f bf f8 76 29 be
       -0.25296652 -0.4159432 -0.7483842 -0.16549289

Layer1.2.weight f4 [8]
000000 d6 7f 75 3f 8c 52 69 3f f1 15 87 3f 43 78 86 3f
       0.9589819 0.9114158 1.0553571 1.0505451
000010 bb 46 8a 3f 52 1f 6c 3f a4 5a 96 3f 7f c6 79 3f
       1.0802835 0.9223529 1.1746411 0.97568506

Layer1.2.bias f4 [8]
000000 62 6d 0b 32 d8 a8 0a b3 43 3c 1f 32 9f cb 37 33
       8.115736e-09 -3.228419e-08 9.26872e-09 4.27932e-08
000010 63 50 42 b3 a1 c5 a0 b3 69 b3 fb 31 70 08 6f b1
       -4.5242256e-08 -7.486529e-08 7.325458e-09 -3.4783874e-09

Layer1.2.running_mean f4 [8]
000000 bc b1 aa 3e 74 3e a6 3e 94 00 66 3e 8e 93 47 3e
       0.33338726 0.32469523 0.22461158 0.19489881
000010 f6 8b b7 3e 54 9e 1b 3e a8 d6 5d 3e f1 8c cb 3e
       0.3584897 0.15197116 0.21663916 0.39755967

Layer1.2.running_var f4 [8]
000000 73 74 5b 3e 25 33 97 3d 82 ca e9 3e b7 b4 c5 3e
       0.2143114 0.07382802 0.45662314 0.38614437
000010 ea 1f 3e 3f c5 99 8d 3e 18 a0 e1 3e 8d 71 a0 3d
       0.74267447 0.2765638 0.44067454 0.07834158

Layer1.4.weight f4 [8, 8, 1, 1]
000000 c1 0e f7 bc 4b d6 f6 3d e6 66 c3 be ab 68 16 3f
       -0.030158402 0.12052592 -0.38164443 0.5875346
000010 5e 07 ad be 64 bf 4b bc 35 69 35 be e3 bc 3d 3e
       -0.33794683 -0.012435768 -0.17715915 0.18529086
000020 21 3b 89 be 60 2f f0 3e ef d0 49 3e 5c 61 c2 3e
       -0.26802924 0.46911144 0.19708608 0.37964904
000030 93 d6 b7 be af c9 6d bd 1c 04 d4 3e d3 88 c0 3e
       -0.35905895 -0.05805367 0.41409385 0.3760439
000040 eb b5 bd 3e 10 05 39 be 49 f5 31 be 71 d0 33 be
       0.37052855 -0.18068337 -0.17378725 -0.17559983
000050 dd 1c 6d be b1 79 ec 3e 40 95 f2 be 6f 6b 1c 3e
       -0.23155542 0.46186593 -0.47379494 0.15275358
000060 e9 ea c8 be 82 94 e8 3e c6 f6 ae be 69 59 8f be
       -0.39241722 0.45425802 -0.34172648 -0.27997902
000070 dc 0a dd 3e aa cc e8 3e f3 ec 54 3d 67 47 69 3e
       0.43172348 0.45468646 0.051983785 0.22781144
000080 f0 2c 61 bd 8e 2d 3a be 29 d0 08 bf 05 97 f6 be
       -0.054974496 -0.1818144 -0.5344263 -0.48162094
000090 e1 55 aa 3d d3 9e c6 3e e6 77 0c 3f 9d bd 47 3e
       0.08317161 0.38793048 0.5487045 0.19505925
0000a0 a3 b5 ff 3e b0 bb ca 3d cb 11 05 3d 40 2e 2c 3e
       0.49943265 0.0989908 0.03248767 0.16814518
0000b0 c4 bc 2e be bf ff 6e 3e 86 90 f3 3e 04 33 1f be
       -0.17064196 0.23339747 0.475712 -0.15546805
0000c0 25 dd 09 3e ad be 3e 3d 5f 15 1d be 62 a8 2b 3e
       0.13463266 0.04656856 -0.15340184 0.16763452
0000d0 68 2e c0 3e 1d 77 99 3e 24 f9 80 be 4e c4 0a bf
       0.37535405 0.2997369 -0.2519008 -0.5420579
0000e0 e0 4b 7b 3d 56 d6 80 3e e2 2b 09 3f 8a 3e 85 be
       0.061351657 0.25163525 0.53582585 -0.26024276
0000f0 02 e8 b8 be 14 7a 39 be 56 47 e8 be b2 95 95 bd
       -0.36114508 -0.18112975 -0.45366925 -0.07303943

Layer1.4.bias f4 [8]
000000 0b 1d 8f 3e 5e b5 86 be 2d ee d6 3d 41 c0 ed 3d
       0.27951846 -0.26310247 0.10494647 0.11608935
000010 45 3c de 3d 89 d8 45 be da 2c 6d be b7 87 de 3d
       0.10851339 -0.19320883 -0.23161641 0.10865729

Layer1.5.weight f4 [8]
000000 f9 e8 83 3f 44 af 7b 3f 70 ff 83 3f 53 4f 83 3f
       1.0305473 0.9831431 1.0312328 1.0258583
000010 c7 e2 70 3f 8a 2f 80 3f a6 3e 77 3f 47 a6 75 3f
       0.94096035 1.0014508 0.9657997 0.95956844

Layer1.5.bias f4 [8]
000000 be 00 0c bc 53 24 f8 bd 53 b8 72 3d 2f fc e3 3c
       -0.008545099 -0.12116303 0.059257817 0.027830211
000010 a2 f0 c0 3c fc 5c bd be ef ba 61 3c e3 17 38 bc
       0.023552243 -0.36985004 0.013777479 -0.011236164

Layer1.5.running_mean f4 [8]
000000 45 a5 96 3e 82 d8 d7 3d 1e a8 5c 3d 76 b6 7f 3e
       0.29422966 0.105393425 0.053871267 0.24971947
000010 63 99 b2 3d db 35 64 3e ee df 70 be 25 a5 a5 bb
       0.087206624 0.22286169 -0.23522922 -0.005055087

Layer1.5.running_var f4 [8]
000000 29 6a c5 3f b9 e0 94 3f f7 1b c2 3f 4f e6 95 3f
       1.5423023 1.163108 1.5164784 1.171091
000010 eb 5f 39 3f c7 b9 f5 3f fe 4e 94 3f 7d b5 8f 3f
       0.72411984 1.919732 1.1586607 1.1227261

Layer2.0.weight f4 [16, 8, 3, 3]
000000 df 6b 90 3d 11 05 0e 3e 2f 22 c2 3c ac a5 db bd
       0.07051825 0.1386912 0.02369794 -0.10724959
000010 46 e2 dc 3d b0 0b 9c 3e b3 74 87 bd 88 1c 82 be
       0.10785346 0.30477667 -0.066140555 -0.25412393
000020 cd 14 02 be d0 84 d6 3d bb e9 c4 ba 6d ca 05 3e
       -0.12703247 0.10474551 -0.001502327 0.130655
000030 b5 6c 57 3e e3 c3 84 3e a2 cf 30 3d 84 42 a4 bd
       0.21037562 0.259307 0.043166764 -0.08020499
000040 33 f7 19 3d 06 86 52 bd d1 d7 ea 3d 04 72 75 3e
       0.037589263 -0.051397346 0.11466945 0.23969275
000050 3a b2 39 bd 43 94 2e be b3 7b bf bc 6e 77 13 3e
       -0.045335986 -0.17048745 -0.023374414 0.14401028
000060 7c 54 5a bd 34 c2 c5 bd f0 d0 06 bd 89 ea a3 bd
       -0.053303227 -0.09656182 -0.032914102 -0.080037184
000070 a0 b9 2c 3e 3b 9c 83 bd cc 54 53 3d 99 f0 36 3e
       0.16867685 -0.06426283 0.05159454 0.17865218
000080 81 3b 6e 3e 39 c3 52 3e 51 08 67 3e d5 f2 0a bd
       0.23264886 0.20582284 0.22561766 -0.03392299
000090 54 5f 45 be c9 61 5f bd 61 0f a7 bd a2 20 1e 3d
       -0.19274646 -0.054536615 -0.0815723 0.03860534
0000a0 0b 4c 3d ba 8d 9d 1d be bc 06 3c 3e 4e f2 8b 3e
       -0.0007221109 -0.15392132 0.18361944 0.273333
0000b0 7a 6b a5 bb 82 34 66 3d ee 99 b5 3b 5f ab 09 3e
       -0.0050482126 0.05620242 0.0055420315 0.13444279
0000c0 b2 ea c8 bc f7 7d 16 bc 38 15 0a be 09 dd 3c bd
       -0.024525974 -0.009185306 -0.13484657 -0.046109233
0000d0 f0 b1 21 3d 25 88 62 bd eb d2 e2 bd ce 68 a5 3d
       0.039476335 -0.05530562 -0.11075386 0.080766305
0000e0 7f df 6b 3d 80 82 6d be 7a ad 7e be 59 21 93 3b
       0.05758619 -0.23194313 -0.24870864 0.0044900593
0000f0 a4 c4 3a 3d 33 91 23 bc 75 c8 e2 bd c8 35 41 3e
       0.045597687 -0.009983349 -0.110733904 0.18868172
000100 02 a9 eb 3c f6 2e 05 be 15 32 35 3d 7b a5 55 3e
       0.028767113 -0.13006195 0.044237215 0.20863907
000110 c1 5f 46 3d c7 11 0a be d9 0d 67 bc 83 47 34 3e
       0.04843116 -0.13483344 -0.014102423 0.17605405
000120 d1 56 31 ba e4 3a ab bd e4 fa 18 bd cd 30 46 3e
       -0.0006764951 -0.08360842 -0.037348643 0.19354554
000130 a2 98 28 3d b8 2a 0d 3e 62 8f 61 3d 38 bd 5a 3d
       0.041161187 0.13785827 0.05506838 0.05340311
000140 d8 f3 3a 3e 2e 93 7d 3e 5e e7 17 3e d9 70 7d 3c
       0.18257082 0.24763176 0.14834353 0.0154687995
000150 29 4f c4 3d b7 39 39 3e 65 e5 2e 3c 0e c3 ed 3c
       0.09585411 0.18088423 0.010674809 0.029023673
000160 db 77 a8 3d c8 74 bd 3d 2b 96 4c be 88 71 e0 bd
       0.082259856 0.0925079 -0.1997916 -0.10959154
000170 f9 95 4f be bf ed 5f 3e b7 3e 49 be bd ec 75 bd
       -0.20272054 0.21868037 -0.1965283 -0.060040224
000180 8f 24 2f 3e 6c fa ae 3c 5c 7b 81 3d 94 8b 8f 3d
       0.1710379 0.021359645 0.06322357 0.07009044
000190 c4 77 fb bd 6f 3c 8c be cc ff c3 3e 6e 28 3c 3e
       -0.12278703 -0.27389857 0.38281095 0.18374798
0001a0 fc 82 ee 3b 5f 46 16 3e 6c 21 2b 3e 01 20 69 3d
       0.007278798 0.14675282 0.16711968 0.056915287
0001b0 75 e8 9e bc 20 bd 64 bd 1b 40 80 bd b3 19 1d 3e
       -0.019397954 -0.055844426 -0.06262227 0.15341835
0001c0 ad ad fb 3d 25 cd 26 be 43 e9 14 3e 7b d5 85 3d
       0.122889854 -0.16289194 0.14542107 0.06534859
0001d0 c8 3e 2e 3c b2 24 3b 3e 05 5e a0 3d 01 c8 44 3d
       0.010635085 0.18275717 0.07830433 0.0480423
0001e0 5d d2 86 bd 4e c7 84 3d 18 ff 4d bd a9 42 0d be
       -0.06583092 0.06483327 -0.050292104 -0.1379496
0001f0 84 be 5b 3d a8 14 2f bd b9 be c9 3d ec 05 e4 3c
       0.053648487 -0.04274431 0.098508306 0.027834855
000200 f0 51 90 3d 1d ec e4 3d ab 59 c3 3d e9 32 9f 3d
       0.07046878 0.111778475 0.09538587 0.07773382
000210 f9 82 0c be 74 60 cf bc 55 67 e6 bd c3 93 c3 bd
       -0.13721837 -0.025314547 -0.11250178 -0.09549668
000220 cb 1f 25 bd ca da 56 bd 3f b4 25 3d 01 86 7a bd
       -0.040313523 -0.052454747 0.0404551 -0.061162952
000230 65 9d fb 3b 01 9f 20 3e 2c 41 54 bc a1 cd d9 bc
       0.007678675 0.15685655 -0.012954991 -0.02658731
000240 a3 fb 0f bd 4b 80 ba 3d 53 60 17 3e ce 3d 1c 3d
       -0.03515209 0.09106501 0.14782839 0.03814488
000250 8c e4 1e 3e fb 9d 53 3e 57 62 a8 3c 23 e1 32 3c
       0.15516871 0.20665734 0.020554705 0.010917935
000260 f0 bc 2e 3e 36 3b 4d bd 79 52 01 3e b5 a3 1e bd
       0.17064261 -0.050105296 0.12629117 -0.038730342
000270 1e 61 8d 3d 4d 93 6f 3d 1d d5 c9 3c f7 e2 a3 3d
       0.06903289 0.058490086 0.024637753 0.080022745
000280 21 35 e3 3d 96 a4 92 3d 00 ef 6c be e9 05 33 be
       0.11094118 0.071602985 -0.23138046 -0.17482723
000290 71 04 b9 3d 95 b0 49 be 45 41 b1 bd 9e 5c 77 3e
       0.0903405 -0.19696267 -0.08655027 0.24156424
0002a0 92 b6 cb bd e0 26 89 bc a2 c6 7f 3e d3 f4 0a be
       -0.09946932 -0.01674217 0.24978116 -0.13569956
0002b0 1e 0b d5 bd 79 c2 95 3d 87 5c 30 3d 20 3c 68 bd
       -0.10402511 0.07312483 0.04305699 -0.056697965
0002c0 4e 1d 14 3e 65 58 92 bb cc 4f 33 bb 9a 60 55 3e
       0.14464304 -0.004466104 -0.0027360795 0.20837632
0002d0 7e 00 45 be 37 5d d5 bb 84 2c 32 3e 90 c1 2e be
       -0.19238469 -0.006511356 0.17399794 -0.17066026
0002e0 e0 8f ec 3d f6 0b 33 3e 66 99 8b 3d 28 db 18 3e
       0.115508795 0.17485031 0.06816368 0.14927351
0002f0 a1 f7 1e 3e 2f 78 8c 3d 72 d5 2d 3e ea 8a a0 bc
       0.1552415 0.06858861 0.16975954 -0.01959749
000300 b3 3e e2 bc e1 31 c7 bd 83 a5 9f bd 8e f6 ca 3a
       -0.027617788 -0.097263105 -0.07795241 0.0015484856
000310 9a 73 9b bd 46 99 f5 3a 03 f2 f6 3d c2 75 b8 3d
       -0.075904086 0.0018737696 0.12057879 0.090068355
000320 e7 ed 33 bd a1 ae 2e 3b 72 a0 05 be 02 0c fc bc
       -0.043928053 0.002665438 -0.13049486 -0.030767445
000330 a6 45 6a 3a 31 35 5b be 3e 7c f7 bd ac fb 38 be
       0.000893677 -0.2140701 -0.12084244 -0.18064755
000340 2b 2f f4 bd 3b 10 43 be 05 61 18 be 47 ff bf bd
       -0.11923059 -0.1904916 -0.1488076 -0.09374862
000350 f0 fb 91 3d a2 9e ab bd b9 ce aa 3d 0f 0c a7 3d
       0.071281314 -0.08379866 0.083402105 0.08156597
000360 d3 19 42 bd 47 e2 d9 bd d0 0f d3 bc 79 8a 29 be
       -0.04738791 -0.10638862 -0.025764376 -0.1655673
000370 81 ba 8f bd a0 a5 7a bd 97 b7 27 be 3a bf 95 bd
       -0.07017995 -0.06119311 -0.16378628 -0.07311864
000380 50 52 c0 3c 29 c2 9d 3e 42 4a 1b 3e 9b 37 27 3d
       0.02347675 0.30812195 0.15165046 0.040824514
000390 52 27 14 3d 29 54 72 bd 58 c6 e5 bd b3 5e 19 be
       0.03617031 -0.059162293 -0.11219472 -0.14977531
0003a0 34 a9 6b be dc e5 8e be bb 0f 21 be 86 74 42 be
       -0.23013765 -0.27909744 -0.15728657 -0.18989763
0003b0 9c ce dc 3c a7 fa bb bd d3 31 72 bd 6a 48 80 3c
       0.026953988 -0.091786675 -0.059129547 0.01565953
0003c0 78 48 43 bd ed 03 61 bd 5f 25 38 3e ba 46 25 bc
       -0.047676533 -0.054935385 0.17983006 -0.010087663
0003d0 44 43 4c 3c 01 b3 25 3c 26 3b c0 3c 4a f1 bc 3d
       0.012467209 0.010113479 0.023465704 0.0922571
0003e0 66 5b a8 3d 7f 49 56 be 7e 13 c6 bc 45 34 8b bc
       0.08220558 -0.20926474 -0.024179216 -0.016992697
0003f0 4e 86 3e 3c 6f ed 71 3d 52 ef 45 3d 94 8c 22 bc
       0.0116287 0.059064325 0.048323937 -0.009921212

Layer2.0.bias f4 [16]
000000 59 eb 31 3e 79 bb 99 3c eb ed 48 be bc 5a 9c bd
       0.17374934 0.018766152 -0.19622009 -0.07634494
000010 0b 32 53 be 42 d6 f2 bd 70 92 86 be cd 29 12 be
       -0.20624559 -0.11857273 -0.26283598 -0.14273758
000020 24 4d a2 bd f0 60 2d 3a d6 3b db bd ad 86 80 bd
       -0.0792487 0.0006613871 -0.10704772 -0.06275687
000030 b1 01 9b 3d be 24 89 be ce f5 33 bd 4b e9 d5 bd
       0.07568682 -0.26785845 -0.04393559 -0.10444888

Layer2.2.weight f4 [16]
000000 fa 2f 7b 3f 92 22 76 3f a2 a1 7c 3f d3 fd 81 3f
       0.9812008 0.961465 0.9868413 1.0155586
000010 af 3a 69 3f 86 12 81 3f 24 09 8e 3f af d3 90 3f
       0.9110517 1.0083778 1.109654 1.1314601
000020 cd 5b 78 3f 89 10 8a 3f b7 68 7f 3f e9 82 76 3f
       0.97015077 1.0786296 0.9976916 0.96293503
000030 38 df 77 3f b3 3a 81 3f cf 56 81 3f 0a c7 84 3f
       0.9682498 1.0096039 1.0104617 1.0373242

Layer2.2.bias f4 [16]
000000 d1 f9 fa 31 a5 f5 1c 32 50 d6 7b 31 b3 cb e2 32
       7.3043585e-09 9.136248e-09 3.664713e-09 2.6402494e-08
000010 23 4f ad 32 9a 28 67 b2 50 27 4b b1 c9 e5 7f b1
       2.0175838e-08 -1.3455201e-08 -2.9562734e-09 -3.7238002e-09
000020 aa 58 25 b2 f0 2d 3b b1 98 72 82 b2 d9 18 c7 32
       -9.624424e-09 -2.7238194e-09 -1.5186103e-08 2.3177948e-08
000030 45 6b e5 b1 45 ed 7b 30 6e ca df 31 b3 26 60 31
       -6.6769723e-09 9.165045e-10 6.513168e-09 3.2618288e-09

Layer2.2.running_mean f4 [16]
000000 fe c2 39 3f af 4f 16 3f d0 53 0a 3f 3f f4 06 3f
       0.7256316 0.5871534 0.5403414 0.5271644
000010 be 8b 05 3f 59 2a 1f 3f e1 c2 72 3f dc de 04 3f
       0.52166355 0.6217399 0.9482861 0.51902556
000020 1d 8d 30 3f a8 6e 43 3f b6 b0 1c 3f 03 ab 3e 3f
       0.6896532 0.76340723 0.6120714 0.74479693
000030 9a a0 41 3f 0d 40 c4 3e a5 90 0b 3f 7a a9 f7 3e
       0.75635684 0.38330117 0.54517585 0.48371488

Layer2.2.running_var f4 [16]
000000 a6 8e 9f 3f 58 ec 16 40 4e c7 8c 3f 4d a5 c7 3f
       1.2465408 2.3581753 1.0998323 1.5597321
000010 ce b7 40 3f c9 8b 24 40 7b 04 44 3f 4a 95 0a 40
       0.75280464 2.5710318 0.76569337 2.165362
000020 fe 94 93 3f 3f 68 69 40 49 db 3c 40 2a 01 4e 40
       1.1529844 3.6469877 2.950884 3.218821
000030 cd 6d 83 3f 0d 5f 95 3f b9 a5 ff 3f 29 e4 b0 3f
       1.0267884 1.1669632 1.997245 1.3819629

Layer2.4.weight f4 [16, 16, 1, 1]
000000 27 eb 56 bd 1a 96 ee bd 6e 7b 20 3e 39 37 15 bd
       -0.052470353 -0.11649723 0.15672085 -0.036429618
000010 87 a5 09 bc 77 b9 b8 3d bb f7 ee bd 19 c1 75 3e
       -0.008401281 0.090197496 -0.116683446 0.23999442
000020 d0 e6 12 3e 99 1e 98 3e 6e 89 32 3e f3 a9 29 3c
       0.1434586 0.29710844 0.17435238 0.01035546
000030 8d 2f 92 be ae ec 96 3e d1 b6 ff 3d 22 48 08 bf
       -0.28551903 0.29477447 0.12486041 -0.53235066
000040 26 ad 93 be c0 48 71 3d fb 07 33 3e da ca 65 be
       -0.2884304 0.05890727 0.17483513 -0.22440663
000050 aa 25 95 3e f0 94 d0 bd 5d ab 4b be 4f 69 83 3e
       0.29130298 -0.101846576 -0.19889589 0.25666282
000060 db 6e 45 be 7d c9 98 be fe 7a 8d be 59 e9 e1 3e
       -0.1928057 -0.29841223 -0.27632898 0.44123343
000070 be 82 c2 3d de 29 ea 3d ec c0 9e 3e 46 6c a1 bd
       0.09497593 0.11433767 0.31006563 -0.0788198
000080 c0 58 30 3e 2c b5 a4 bd 90 72 9d be 09 d5 35 3c
       0.17221355 -0.08042368 -0.30751467 0.011098155
000090 d7 5f 33 be 3a 7c c1 be 32 8e 3e 3e 5c 82 42 bd
       -0.17517029 -0.3779009 0.1860893 -0.0474876
0000a0 a0 3c 86 3d f6 b0 01 3f 6a a7 44 3b 51 24 23 be
       0.06554532 0.50660646 0.0030007013 -0.15931822
0000b0 bc f1 ba 3d 6e 7c 59 3e 37 2d ad 3e 57 07 93 3e
       0.091281384 0.21238872 0.3382356 0.28716537
0000c0 68 f1 1a 3e 97 e8 88 be e3 e4 59 be 0d f2 03 3e
       0.15131152 -0.26739952 -0.2127872 0.12885304
0000d0 d1 82 5f 3e 72 b5 07 be 4a 6f d3 3e f4 28 2f 3e
       0.21827246 -0.1325281 0.41295844 0.17105466
0000e0 80 9c c0 3d a4 aa 9a be da ca 8a be 94 ee 7c 3e
       0.0940485 -0.30208313 -0.27107888 0.24700385
0000f0 5b be 86 3d 55 2b 0a 3d 35 df 8e be d1 42 8b bc
       0.06579276 0.03373273 -0.27904668 -0.016999634
000100 0b 38 e4 bd 9b 3f b8 bd cc f1 1a be 2a 68 4d be
       -0.11143502 -0.08996507 -0.151313 -0.20059267
000110 14 51 57 be 3f e2 8a 3e a7 7b 99 be 02 43 94 be
       -0.21027023 0.27125737 -0.29977152 -0.28957373
000120 ee 99 b1 3d 28 7b 7e be 76 90 30 be e3 69 3d be
       0.08671938 -0.24851668 -0.17242607 -0.18497424
000130 6e aa 45 3e 2c c0 ac 3e 41 ef a3 3e 6e e0 ad bd
       0.19303295 0.33740366 0.32018474 -0.08490072
000140 e7 71 30 be 67 e5 59 be 2c b5 b3 3d 97 94 83 be
       -0.1723095 -0.21278916 0.0877479 -0.25699303
000150 bd 61 e7 3d 91 63 91 bd ec 52 94 3d 83 95 c1 bd
       0.11297939 -0.07099069 0.072423786 -0.09452345
000160 9d 37 9a 3e 38 ea 25 be 0d 0c 73 be 55 11 22 be
       0.30120555 -0.16202629 -0.23735066 -0.15826924
000170 6b eb 56 3e e9 d2 cb be b9 d3 80 be 5f 51 3b 3e
       0.20988242 -0.3980935 -0.25161532 0.1829276
000180 17 c4 a2 3e 23 21 00 3e 89 11 af bd 11 1b 43 3e
       0.3179023 0.1251264 -0.085482664 0.19053294
000190 ef 42 75 bd 14 fb 78 be 23 cb c6 3d 94 bb a6 bc
       -0.059878286 -0.24314529 0.09706714 -0.020353116
0001a0 42 52 72 3e fd e3 19 3e c6 b8 37 be af 60 5c be
       0.23664191 0.15028377 -0.17941579 -0.21521257
0001b0 58 2f 87 3e 88 f5 6d 3e bd df 87 3e f6 30 ef 3e
       0.26403308 0.23238194 0.26537886 0.46717042
0001c0 a5 91 32 3d 68 49 86 be ed 76 d2 3d c2 33 36 3e
       0.04359593 -0.2622788 0.102765895 0.17793182
0001d0 5f b6 ee 3d 7c 0c 9c 3e 82 df 77 be 45 e7 c3 be
       0.11655878 0.30478275 -0.24206355 -0.38262382
0001e0 82 aa 8a 3e fb 4f 2b 3e 28 5c dc bd 09 6e 8f be
       0.27083212 0.16729729 -0.10759765 -0.28013638
0001f0 de cb 8a bd a3 c9 3a be 5c 2e 0a bd 4e bc cc bd
       -0.06777166 -0.18240981 -0.033735618 -0.09996854
000200 51 0c 41 3e 8a 66 68 3e 33 1e 89 3e b8 42 18 3e
       0.18852355 0.22695366 0.26780853 0.14869201
000210 56 b8 83 be 00 a9 be be 3c 01 33 bd 7e fa 28 be
       -0.25726575 -0.37238312 -0.04370235 -0.16501805
000220 1f 8b b9 be 67 80 9b bc 4e 13 dc 3c 06 3f 3f 3c
       -0.36238953 -0.018982125 0.026864674 0.011672741
000230 76 c2 05 3e 46 54 06 3e 4f 1e 92 be 0a 45 9c bd
       0.13062462 0.13118085 -0.2853875 -0.07630356
000240 c9 6c b4 3e af 9f 4f 3e 93 cd 08 3e 55 d3 01 be
       0.35239246 0.20275758 0.1335967 -0.12678273
000250 05 40 13 3e 11 0f 71 be 02 45 4f 3d 88 c9 48 be
       0.1437989 -0.23540904 0.05060292 -0.19608128
000260 48 46 8c 3e fa fe 80 be c7 e6 c8 3d 0c 66 95 be
       0.2739737 -0.25194532 0.09809642 -0.29179418
000270 1c 4f de 3d 87 b0 69 3d 5e 46 06 be d5 a0 93 bd
       0.10854933 0.057053115 -0.1311278 -0.07208411
000280 46 75 d9 bd 55 6b d8 3e 57 9e 61 be ed de 45 be
       -0.10618071 0.42269388 -0.22033058 -0.1932332
000290 06 39 11 be 0f dc 3c 3c f1 00 25 be 98 d1 20 be
       -0.14181909 0.011527075 -0.1611364 -0.15704954
0002a0 74 27 69 3e 27 26 6d 3e b9 f4 02 3f 5b 33 13 be
       0.22768956 0.23159085 0.5115467 -0.1437506
0002b0 22 6f c4 3e 11 84 14 be ce d6 71 be 32 5b 7e be
       0.38366038 -0.14503504 -0.23617098 -0.24839476
0002c0 f4 9d 80 3e a1 76 da bd 06 a8 e8 bd 04 2a 73 3e
       0.2512051 -0.10667158 -0.11360173 0.23746496
0002d0 6f 46 4b be 42 a5 23 3e d6 f7 d3 3e 60 4b 05 3f
       -0.19851087 0.1598101 0.4140002 0.5206814
0002e0 3f a8 73 be 0e cf 2a be 67 a9 89 bd d6 31 c0 3e
       -0.2379465 -0.16680548 -0.06721764 0.37538022
0002f0 83 a1 57 be 81 8c 30 3b ca ba 70 3c 8a f7 30 be
       -0.21057706 0.0026939216 0.0146929715 -0.17281929
000300 f3 8b 44 be 4d de 51 be cc 07 8f 3e c3 07 6d be
       -0.19194011 -0.20494957 0.27935636 -0.23147492
000310 7c ef 17 3d 40 d7 c5 3e 1d 30 a5 be 9c 44 74 be
       0.037093624 0.38640785 -0.3226327 -0.23854297
000320 67 16 e2 bd 59 40 c6 3d ed 9f 8e be 81 28 69 3d
       -0.11039429 0.09680242 -0.2785639 0.056923393
000330 66 d4 13 3e 09 b2 85 be 7b d4 69 bd 27 63 0c 3e
       0.14436492 -0.26112393 -0.057087403 0.13709699
000340 81 ba 83 be 2c 20 d7 bd 39 23 9d 3e 18 c5 97 3e
       -0.2572823 -0.10504183 0.30690935 0.29642558
000350 66 09 e2 bd d6 29 9b 3e 50 1f 8f be e1 47 31 be
       -0.11036949 0.30305356 -0.27953577 -0.17312576
000360 78 ec 63 be 69 e6 3b bd be f3 0f 3e c0 c8 03 3e
       -0.22258174 -0.045874033 0.14057824 0.12869549
000370 2f 6b 36 3d e0 33 62 be 43 25 97 be d1 c5 88 3e
       0.044535812 -0.22090101 -0.29520616 0.26713422
000380 e7 4a 59 be b3 81 d5 bd 93 1a 72 3e f3 be cb be
       -0.21219979 -0.10425129 0.2364295 -0.3979412
000390 9c 36 8c 3d e5 fb b2 bd 80 24 84 3e f5 30 59 3e
       0.068463534 -0.08739451 0.25809097 0.21210082
0003a0 f2 cd dc bd ff a6 3c 3e 67 fb 21 be c6 a6 05 3e
       -0.107814685 0.18423079 -0.15818559 0.130519
0003b0 8c f2 22 bd 79 9b ab be 82 60 67 be b7 07 f9 bd
       -0.039782092 -0.33517054 -0.22595409 -0.121596746
0003c0 91 11 c7 bc 95 c2 83 be 66 3f c7 bd 5c 54 c7 3e
       -0.024300369 -0.25734392 -0.09728889 0.3893155
0003d0 aa 95 a7 3e ee 74 bb bc 50 8c 96 be 35 5b a0 be
       0.32731372 -0.022882905 -0.29403925 -0.31319585
0003e0 41 38 0f bd 98 0b 38 be ce 43 42 be 01 4a 5c 3d
       -0.034965757 -0.17973173 -0.18971178 0.053781513
0003f0 b0 e5 ac bd c7 8f b6 3d 73 d7 93 3d 47 dc c5 be
       -0.08442247 0.08914142 0.07218828 -0.3864462

Layer2.4.bias f4 [16]
000000 24 6f dd bd 5c 72 d8 3d d8 ff 2a 3e 48 14 30 bd
       -0.10812214 0.10568687 0.16699159 -0.04298809
000010 42 b4 17 3e 44 28 3e 3e 18 be 69 bd 78 88 c4 bd
       0.14814857 0.18570048 -0.057066053 -0.09596342
000020 dc 8e 93 bd 34 0f 8f bd f4 14 d3 bd 34 ff c7 3d
       -0.07204983 -0.06985322 -0.10306731 0.09765473
000030 90 84 eb 3b 38 af 4a 3d 08 4a cf bd ac 39 3a be
       0.0071874335 0.049483508 -0.10121542 -0.18186063

Layer2.5.weight f4 [16]
000000 11 66 78 3f 2c 07 80 3f 1b e7 7c 3f c3 02 81 3f
       0.9703074 1.0002189 0.9879014 1.0078968
000010 7c 27 6d 3f 61 dc 7d 3f bd 6b 8a 3f 7e 23 6c 3f
       0.92638373 0.99164397 1.0814129 0.92241657
000020 63 74 6f 3f 03 e6 75 3f ec 73 86 3f 95 53 84 3f
       0.9353697 0.96054095 1.0504127 1.0338007
000030 ec c4 78 3f 9c a9 6e 3f a4 39 88 3f 40 2b 8c 3f
       0.9717548 0.93227553 1.064259 1.0950699

Layer2.5.bias f4 [16]
000000 09 e6 70 be 81 3a dd bd 27 de ea 3d 75 38 45 3d
       -0.23525251 -0.10802174 0.114681534 0.048149545
000010 f6 45 a9 bd 3b e9 47 3e 98 10 36 3e 0b 0d c8 bc
       -0.08265297 0.19522564 0.17779768 -0.024420282
000020 a3 b3 cd bd 16 09 90 3d 9f da 86 3d 76 eb 5d bd
       -0.100440286 0.07032983 0.065846674 -0.05417963
000030 2c 03 c5 bc 89 61 54 be 9c 5c 82 3d 64 d5 2a be
       -0.024049364 -0.20740332 0.0636532 -0.16682965

Layer2.5.running_mean f4 [16]
000000 1d 79 74 bc 0d 7d d9 3d 4c 5c 09 3f a7 72 04 3e
       -0.014921454 0.10619555 0.5365646 0.12934361
000010 40 ed 8c be b4 58 33 be 85 00 58 3f 9d 13 9d be
       -0.27524757 -0.17514306 0.8437579 -0.30679026
000020 cd 21 96 be 88 b9 1e 3e db bb 17 be 48 6e d1 3e
       -0.29322663 0.15500462 -0.14817755 0.4090445
000030 6a ea bc be b6 69 0f be 9c 72 d4 be ec 07 32 bf
       -0.36897594 -0.1400517 -0.4149369 -0.6954334

Layer2.5.running_var f4 [16]
000000 a7 ec d2 3f 4b c1 c0 3f 48 10 f2 3f 38 c2 1c 40
       1.647847 1.5058988 1.8911219 2.4493542
000010 dc 42 ae 3f d7 5f 5c 40 b5 3a 25 40 14 ba dd 3f
       1.3614154 3.4433496 2.5817082 1.7322412
000020 c7 1f f7 3f be 30 fa 3f dd 8e ad 3f 0c 9d 01 40
       1.9306573 1.9546125 1.3559223 2.0252104
000030 9c a8 cd 3f 85 9e 95 3f 34 1c da 3f e6 8d 02 40
       1.606708 1.1689001 1.7039857 2.0399108

Layer3.0.weight f4 [32, 16, 3, 3]
000000 19 05 07 be 26 08 98 bd cb 69 3b be dd 13 12 bd
       -0.13185538 -0.07423429 -0.18302076 -0.035663474
000010 7b ae 6a bc 2f b4 db bd 08 55 7a 3d 54 3b 14 bd
       -0.014323826 -0.10727727 0.06111625 -0.036189392
000020 fd ba 09 bd f2 88 81 bc d8 cb 7d 3d 5b f9 11 3b
       -0.03362559 -0.01581237 0.06196198 0.0022273872
000030 ec ef b2 bd de e6 58 3e c8 4c ae 3b 82 fb 5a be
       -0.08737168 0.21181819 0.0053192116 -0.21385005
000040 18 28 aa 3c 64 2a 8c bd 5f 71 26 bb a9 24 3e bd
       0.020771071 -0.06844023 -0.0025397164 -0.04642168
000050 45 3e e8 bd 98 67 50 bd a0 b1 da bd 82 2d fd 3c
       -0.11340002 -0.050880045 -0.106784105 0.030905489
000060 e9 80 2d 3e bd 56 76 3d 3d de a7 bc de 0c dc bc
       0.16943707 0.060141314 -0.020491714 -0.026861604
000070 64 3b 51 bd 55 4a fa bd 6e 99 7c 3e 31 66 50 3e
       -0.05108203 -0.12221209 0.24667904 0.20351483
000080 c2 ec f8 3d 66 1a 56 bd 27 cf 34 3d 9f b7 91 bc
       0.12154533 -0.05227127 0.04414287 -0.017787753
000090 88 52 b6 3d 62 ca 01 bc 0b d0 6c bd 49 d0 a0 3c
       0.0890246 -0.007921787 -0.057815593 0.019630568
0000a0 e4 92 59 3c 15 a0 84 3c ab 2b 1a be f4 e0 c1 bd
       0.01327965 0.016189614 -0.1505572 -0.094667345
0000b0 cb f8 22 bc d1 f8 42 bc 26 ab 19 3d fd a5 8c 3d
       -0.009947012 -0.011900143 0.037516735 0.06867597
0000c0 25 60 82 3e 51 37 6b 3c 45 a4 22 3e b6 c2 2e bd
       0.25463977 0.01435645 0.15882976 -0.04266616
0000d0 c3 e3 36 bd df 3d 68 3d bc 52 6f 3d 0e 83 cb bd
       -0.044650804 0.05669963 0.05842851 -0.09937106
0000e0 28 81 82 bd 4b b1 95 bc d3 98 93 bd ed c5 36 3d
       -0.06372291 -0.018273016 -0.07206883 0.04462235
0000f0 a9 f5 1e 3e 36 c7 83 3b 6a 87 0a be f1 dd eb bb
       0.155234 0.0040215505 -0.13528219 -0.0071980883
000100 9f 1f 7e bd 2d b4 cb 3c ac f0 a7 3d b4 df b5 bd
       -0.062041875 0.024866188 0.082002014 -0.088805586
000110 75 9c 93 bd 44 09 7c 3d f2 e7 0a be 82 02 7d bc
       -0.07207576 0.061532274 -0.13565043 -0.015442492
000120 ff 04 97 3c 4f aa 85 bc 74 02 0a 3e 07 dc d1 bc
       0.018435 -0.016316561 0.13477498 -0.025617613
000130 d8 4c 51 3c 5e 17 db 3d c6 05 81 3d 2e 84 69 bc
       0.012774669 0.10697816 0.06299929 -0.0142527055
000140 1c 90 6f bd d0 55 8b bd 43 cb 62 bd 08 d8 b2 3d
       -0.058487043 -0.06803477 -0.055369627 0.08732611
000150 2e a2 43 3e 5d c1 19 bd 44 7d c0 3d fe 2d 1e 3d
       0.19104835 -0.03753792 0.093988925 0.03861808
000160 44 10 11 bd d9 b1 12 3c 6a 5e 12 bd fa aa 1d 3e
       -0.035415903 0.008953535 -0.03573457 0.15397254
000170 f2 6a b6 bc 25 93 92 bd 8c 97 79 bd aa b9 9f 3d
       -0.022267792 -0.07156972 -0.060935542 0.077990845
000180 96 2c e9 3d e2 5c 09 3d e8 07 e4 ba b2 cc 91 bd
       0.11385457 0.033535846 -0.0017397376 -0.07119121
000190 30 f1 cf bc d7 b1 96 be b0 09 28 bd 78 98 01 3e
       -0.025383562 -0.29432556 -0.041024864 0.12655818
0001a0 1a d9 f6 bd 3f 45 b5 bd fd c7 32 3d a5 87 d9 bd
       -0.120531276 -0.08851098 0.043647755 -0.10621575
0001b0 cc f0 41 bc 4f 53 8c 3b 9c cb 3a 3e 5d 30 8c 3d
       -0.011837196 0.004282392 0.18241733 0.06845162
0001c0 32 af 82 bd 32 0c d6 3c d4 e3 39 be c7 55 1f bd
       -0.06381072 0.026128862 -0.18153316 -0.038900163
0001d0 c8 0a 93 3d e4 b5 be 3d 67 d8 a1 3d 49 2c 5c 3e
       0.07179791 0.09312037 0.079026036 0.21501268
0001e0 0c 3a e2 bd 97 4b 95 bc 3f fb e6 bd fe b9 94 3d
       -0.11046228 -0.01822452 -0.1127839 0.07262038
0001f0 d2 4a b3 3d 2b a7 bf 3c 9c fe bb bd 5d 69 df bb
       0.08754505 0.023395142 -0.09179422 -0.00681798
000200 dc 5e bd 3c df d2 15 3e 93 21 37 3e 1c fa 3d 3e
       0.023116522 0.14631222 0.17883901 0.1855244
000210 c1 ba b9 bd e9 d7 a0 bc 1e 3b ae 3d 8e 31 81 bd
       -0.090688236 -0.019634204 0.085073695 -0.0630828
000220 da d6 72 bd 24 76 d0 bd 58 8b c8 3d bf 40 08 bd
       -0.05928693 -0.101787835 0.09792203 -0.03326487
000230 0a 90 69 bd 40 21 a0 bd 04 2a 84 3a ed bc f5 3d
       -0.057022132 -0.07818842 0.0010083322 0.11998925
000240 34 d7 8f 3d 0e 33 d5 3d 7a ee 69 3d c1 ab a3 3c
       0.070234686 0.104101285 0.057112195 0.01997936
000250 ca 33 40 3d ee 47 c6 3d 73 d8 23 bd af 3f 06 bd
       0.04692439 0.09681688 -0.040001344 -0.032775577
000260 b5 c3 43 3d 3e 51 f4 bd 78 65 0d 3d 9a a0 e0 3c
       0.047794063 -0.11929558 0.034520596 0.02742033
000270 23 57 a3 bd 3f d0 88 bc 98 bc 14 3d 6d c8 e8 bc
       -0.079756044 -0.016700862 0.03631267 -0.028415883
000280 0f e1 d6 bc f6 f4 04 3e df f4 96 3d 07 94 b8 3a
       -0.026230363 0.1298407 0.07370924 0.0014082202
000290 f6 7d 16 bd 19 3b ae 3d bd df 77 3c 76 77 6a bc
       -0.03674122 0.08507366 0.015129027 -0.014310708
0002a0 44 b2 c9 3b cc 9d 8b bd 65 29 20 bd 83 9e b7 3d
       0.006155284 -0.06817207 -0.039101977 0.089657806
0002b0 06 93 41 3d e4 0f 2a 3d d5 a3 d6 3c d6 4b 66 bd
       0.047259353 0.04151906 0.026201168 -0.056224667
0002c0 86 c3 90 bd 81 49 32 3d 85 93 a4 bd 45 44 27 bd
       -0.07068543 0.04352713 -0.080359496 -0.04083659
0002d0 a7 ab 29 bd aa c6 dd bc b2 e8 a5 bd 0e b3 2f bd
       -0.041423466 -0.02707227 -0.08101024 -0.04289537
0002e0 fc e5 b3 bd 31 ce 80 bc 90 fd 57 bc b4 64 0e bd
       -0.087841004 -0.01572332 -0.013183013 -0.034764007
0002f0 f6 d6 15 3e 05 14 ba bc 0f 61 e9 bd c4 db bf 3c
       0.14632782 -0.022714624 -0.113954656 0.023420222
000300 c4 0c 9a 3d 43 05 5f 3c 7e 21 fb bd 9a b3 c7 3c
       0.07521966 0.013612094 -0.122622475 0.024377633
000310 75 4e 89 bd f6 01 7a 3c 08 06 91 3d 0a 59 83 bd
       -0.067044176 0.015259257 0.070812285 -0.06413467
000320 51 1d 81 bc 6d f1 83 3d 00 08 9b 3d 5d 3a cb bd
       -0.01576105 0.06442533 0.07569885 -0.09923241
000330 1f f4 d2 3a f2 d3 8c bd 65 36 fa bd 0e 03 be bc
       0.0016094482 -0.06876363 -0.12217406 -0.023194816
000340 48 b5 9a bc ed f6 e6 bc 57 30 99 bc 6f 39 f4 bc
       -0.01888527 -0.028193915 -0.018699808 -0.029812543
000350 9b d6 12 3c dc c9 1f 3c 24 de 97 3d c1 a3 df 3d
       0.008962299 0.009752717 0.07415417 0.109199055
000360 24 ad 7b bd 7c 7e d8 bd af f0 c4 bc b8 82 d0 3c
       -0.061444417 -0.10571 -0.024040548 0.025452957
000370 30 0b 82 3d 3a 24 8b 3d 85 bb 1a bd d2 fa b6 bd
       0.0634979 0.06794019 -0.03777649 -0.08934559
000380 cf ce b2 bd d2 2b 5f 3d 10 01 96 bd 71 61 06 3d
       -0.08730852 0.05448515 -0.073244214 0.03280777
000390 d9 a5 8e 3e 44 93 53 bb e3 14 81 bb 0a 19 1d 3d
       0.27860907 -0.0032283822 -0.0039392575 0.038353957
0003a0 75 74 d4 bd da dd df bd e2 b9 af 3c 3b 2b b2 3d
       -0.10373775 -0.10930987 0.02145094 0.08699652
0003b0 88 de 74 bd 30 3b 31 3e c4 c7 c6 3d c5 c9 0a 3e
       -0.059782535 0.17307734 0.09706071 0.13553531
0003c0 03 61 85 3c 87 93 da bd 8a 62 c1 bc 61 ed cf b9
       0.01628161 -0.1067267 -0.023606557 -0.00039658978
0003d0 c2 f4 f4 3d cc c9 a9 3d dd 9a 9c bd fe 3b 32 bd
       0.11960746 0.08290443 -0.07646725 -0.043514244
0003e0 3c ff 83 bb c8 a7 cb bc c3 56 eb 3c 17 39 bc bd
       -0.004028229 -0.024860278 0.028727895 -0.091905765
0003f0 92 8d c7 bd 26 60 9a bd 23 fa 4f 3d 54 83 24 be
       -0.09743799 -0.0753787 0.05077566 -0.16065723

Layer3.0.bias f4 [32]
000000 2c 6d a6 bd 23 31 dd bd d4 83 29 bd eb 31 ca bd
       -0.08126292 -0.10800388 -0.041385487 -0.09872802
000010 fa d6 54 3d 15 40 f8 bd 14 7c 92 bd 58 8d bd bd
       0.05196283 -0.12121598 -0.07152572 -0.09255475
000020 36 4a e2 bc 41 37 20 3c 7c 92 c2 3c 06 55 cd bd
       -0.027623277 0.009778799 0.02375149 -0.100259826
000030 9e 1e 05 be ff be a0 bd 0a 3a fe bd 19 a1 06 be
       -0.12999961 -0.078489296 -0.12413414 -0.13147391
000040 ea c5 25 3c f1 f5 d0 bd 73 cc 37 bb c0 01 0c bc
       0.010117987 -0.102031596 -0.0028045445 -0.008545339
000050 39 db 85 bd ad 0a bc bd 98 37 22 be c2 ec 9c bd
       -0.06535954 -0.09181724 -0.1584152 -0.076623455
000060 c1 23 ff bc cd 5a 15 be 02 88 09 be 2b 39 85 bc
       -0.031144978 -0.14585419 -0.13430789 -0.016262611
000070 a8 85 76 bc 2b 2c e9 bd da e8 2e 3d 5e 79 7b 3d
       -0.015046515 -0.113853775 0.042702533 0.06139504

Layer3.2.weight f4 [32]
000000 96 ec 7a 3f e2 93 6d 3f 0b 1e 83 3f 7a ea 6a 3f
       0.9801725 0.92803776 1.0243543 0.9176403
000010 e6 70 8e 3f af 84 7d 3f c2 0b 71 3f f8 7d 6f 3f
       1.1128204 0.99030584 0.94158566 0.9355159
000020 29 b5 71 3f d0 5f 82 3f f4 f7 87 3f a5 19 7d 3f
       0.94417053 1.018549 1.0622544 0.98867255
000030 ac 92 8b 3f 89 d2 77 3f 76 a9 78 3f 24 07 72 3f
       1.0904136 0.96805626 0.97133577 0.94542146
000040 41 03 66 3f f2 b2 86 3f 79 dc 88 3f d9 4c 7a 3f
       0.89848715 1.052336 1.0692283 0.9777351
000050 51 e4 7a 3f 8a 9d 81 3f 35 de 8a 3f a3 74 73 3f
       0.98004633 1.0126202 1.0849062 0.9509985
000060 d0 2a 78 3f ba 06 84 3f 2e f6 6b 3f 25 87 94 3f
       0.96940327 1.0314553 0.92172515 1.1603743
000070 20 77 75 3f 90 48 82 3f b6 8c 86 3f 57 4a 8a 3f
       0.95884895 1.0178394 1.0511692 1.0803937

Layer3.2.bias f4 [32]
000000 c8 82 2d bc fd 4e d1 3c 06 a6 18 3e dd 52 9f bd
       -0.010590263 0.02555036 0.14907083 -0.07779477
000010 a4 c2 10 3d b4 97 c3 bc 21 91 e8 3c 5c 42 ff bc
       0.035341874 -0.023876049 0.028389515 -0.031159572
000020 44 fd e9 bd 24 2c 34 bb 7e aa af bb ee 1b 98 3c
       -0.1142526 -0.002749213 -0.0053609004 0.018568005
000030 57 25 1b 3e 83 f5 c7 3d 4b 71 87 bd 1a b2 8d 3c
       0.15150963 0.097636245 -0.06613406 0.01729684
000040 d5 65 a0 bc 39 57 da 3b 74 5c 56 3d b2 2c 2f bc
       -0.019579807 0.00666323 0.052334264 -0.010691809
000050 a1 21 e7 3d fb d0 fb bc 22 b0 c1 3d e4 b2 6f bd
       0.11285711 -0.030739298 0.09457423 -0.058520213
000060 d2 3f e9 bc 14 e7 ba 3d ab 9e a4 bd a0 11 28 3d
       -0.028472815 0.09126106 -0.08038076 0.041032434
000070 59 33 c3 bd 4a 95 94 3b 3d 34 bd 3b a1 7e c8 bc
       -0.09531278 0.004534398 0.0057740496 -0.024474444

Layer3.2.running_mean f4 [32]
000000 62 5d 0d 3f 16 eb 61 3f 73 28 3b 3f 16 c7 53 3f
       0.55220616 0.8824934 0.73108596 0.82725656
000010 60 bb 31 3f 7c 2f 31 3f 31 1d 84 3f d0 0f 71 3f
       0.69426537 0.6921308 1.0321409 0.9416475
000020 ff c0 8f 3f 52 bc 6d 3f f0 c8 7d 3f 1d dc 49 3f
       1.1230773 0.9286548 0.9913473 0.7885149
000030 fb 05 34 3f 9c f8 23 3f 88 c4 1e 3f 90 13 69 3f
       0.70321625 0.6405122 0.6201863 0.91045475
000040 f3 76 44 3f 2f bc 37 3f c8 0a 51 3f d5 ee 3b 3f
       0.76744 0.7177152 0.81657076 0.73411304
000050 e3 d9 45 3f 5e cb 52 3f 20 bb 3e 3f 66 65 90 3f
       0.77285594 0.82341564 0.7450428 1.1280944
000060 d3 9d 62 3f c0 df 2f 3f fb c8 8d 3f 33 4f 8a 3f
       0.8852207 0.6870079 1.1076959 1.080542
000070 fa a2 6b 3f a0 b6 2d 3f 61 aa 4a 3f e2 0b 3e 3f
       0.9204556 0.6785679 0.7916623 0.7423688

Layer3.2.running_var f4 [32]
000000 51 fb 7e 3f 6e fb ea 3f a8 92 96 3f 1e b1 b6 3f
       0.9960223 1.835798 1.1763506 1.4272802
000010 58 64 b3 3f b5 9b a5 3f 43 7d 0a 40 5c 10 ee 3f
       1.4014997 1.2938143 2.1638954 1.8598742
000020 ac 36 41 40 03 9d fa 3f 75 ef 06 40 11 37 cc 3f
       3.018962 1.9579166 2.1083653 1.5954305
000030 41 3a be 3f 84 bd 8b 3f 39 ce a2 3f 22 61 f4 3f
       1.4861528 1.091721 1.2719184 1.9092143
000040 6a 82 c1 3f ba 05 cb 3f b3 f8 d4 3f d1 0c b6 3f
       1.5117924 1.5861123 1.6638397 1.4222661
000050 d1 36 d7 3f 8c 66 bd 3f c4 15 be 3f d2 e0 10 40
       1.6813604 1.479692 1.4850392 2.263722
000060 60 eb fd 3f a8 b7 a1 3f c1 04 30 40 cb 9c 0d 40
       1.9837456 1.2634172 2.7502902 2.212695
000070 a4 d8 04 40 ef c6 8a 3f 9d 77 cd 3f d0 73 99 3f
       2.0757227 1.084196 1.6052128 1.1988468

Layer4.0.weight f4 [32, 32, 3, 3]
000000 c4 3d a3 bd 3c 47 0e bd 31 42 22 3b 4f 58 86 bd
       -0.07970765 -0.034735903 0.0024758691 -0.06559812
000010 d7 91 db bd 6f 5c df bd a6 c6 15 bd a2 0f 70 bd
       -0.10721176 -0.10906302 -0.0365664 -0.05860866
000020 e4 86 ea bd 09 9a 36 bd 7c 9e 5b bd 43 71 39 bb
       -0.114515096 -0.044580493 -0.05361794 -0.002829627
000030 83 34 33 bd cc 8c 7e bd 55 11 32 3d 20 f1 05 bd
       -0.04375125 -0.062145993 0.04347356 -0.032700658
000040 80 6d f7 3d 35 1d ae 3c 3c d4 52 bd de 8d ef bd
       0.12081432 0.021254161 -0.051471934 -0.11696981
000050 d4 95 d7 bd e1 b9 74 bd 8b 79 f8 bd e7 8d b6 bd
       -0.10526624 -0.05974758 -0.121325575 -0.089137845
000060 d6 49 00 3d 60 66 5a bd 86 36 70 bd bc 5d 48 bd
       0.031320415 -0.05332029 -0.058645748 -0.048917517
000070 e2 dc b7 bc b8 f2 32 bc 7c 67 82 3b 43 ad e8 bd
       -0.022444192 -0.0109221265 0.0039796215 -0.11361172
000080 bb 42 24 3c 3b 72 dd 3b 57 c9 75 bd 46 96 2f bd
       0.010025675 0.006758002 -0.060006466 -0.04286792
000090 c7 81 50 3d 60 34 1e 3e a9 70 b9 bd 26 a6 ff 3d
       0.050905015 0.15449667 -0.09054691 0.12482862
0000a0 0d 19 22 3c 4a 35 d9 bd 76 30 05 3c cb e1 39 bc
       0.009893668 -0.10605867 0.00812923 -0.011345337
0000b0 84 c7 8f 3d ab b6 d7 bd a1 92 74 3d eb b4 b2 bc
       0.070204765 -0.10532888 0.05971015 -0.021814784
0000c0 52 6c 8c bd 1b be 3c 3b 25 bf 7d bd 7b 5d 0d bc
       -0.06856598 0.0028799835 -0.061949868 -0.0086282445
0000d0 93 c9 b8 bd 14 e8 1c bd 64 67 26 bd 36 7d 40 bd
       -0.09022822 -0.038307264 -0.040625945 -0.04699441
0000e0 ec 2e 1b 3e 4f 2e 3f bd 1b 6e aa 3c 86 e0 4d 3d
       0.15154618 -0.046675023 0.020804456 0.05026295
0000f0 2d 01 72 bd 91 a6 e7 bb 67 3f 8a 3d 81 aa e1 3b
       -0.059083153 -0.007069417 0.06750374 0.0068867807
000100 87 7f d8 3c 1e 9c 6e 3d 94 65 55 ba 2e 12 6b 3d
       0.026427997 0.058254354 -0.00081404415 0.057390384
000110 75 39 b4 3d 07 94 1d bd 85 80 3d bd c1 34 b4 3d
       0.088000216 -0.038471248 -0.046265144 0.087991245
000120 f8 5a f7 3d 07 8e f6 3d 3e da e8 3d ba ad 20 be
       0.12077898 0.12038808 0.113697514 -0.15691271
000130 09 72 99 3d a8 01 a5 3c 8e ea a1 bd 71 51 70 bd
       0.074924536 0.020142391 -0.07906066 -0.05867142
000140 35 92 d0 bc ac a7 72 bc 5c f6 22 bd cd 58 4e bd
       -0.025460342 -0.014810484 -0.039785728 -0.050377656
000150 67 42 b3 bd 47 17 be bd 48 ac c0 3d 92 da 83 bc
       -0.087528996 -0.092817836 0.0940786 -0.016095433
000160 c3 fa 05 ba cd e5 16 3d 2e 3f c5 3c 82 37 c2 3d
       -0.0005110914 0.03684025 0.024077978 0.094832435
000170 2f 43 ff 3c eb e9 5d bd 21 4a 9e bd 06 65 07 be
       0.031159965 -0.05417816 -0.07728983 -0.13222131
000180 13 7d 6c bd 95 06 ad bc d7 c1 a9 3b 59 27 05 be
       -0.057736468 -0.021121303 0.005180578 -0.13003291
000190 40 d8 99 bd c2 34 10 bc 4f f8 b4 bd aa 63 56 bd
       -0.075119495 -0.008801641 -0.088364236 -0.05234114
0001a0 ce 1b 14 3e 14 21 07 3c a7 3b 3b 3d 38 fa df 3c
       0.14463732 0.0082476325 0.045711186 0.027340993
0001b0 45 ad b7 bd de 49 54 bc f7 95 ad 3d c6 3b ed 3c
       -0.089685954 -0.012957064 0.08475869 0.028959166
0001c0 d7 0b 4b bd 42 05 75 bd 5f a7 65 3c a3 12 c4 bd
       -0.04957184 -0.059819467 0.014016955 -0.09573867
0001d0 e0 24 35 be 38 e7 56 bd a3 62 7d bb dc fe 45 bc
       -0.17689848 -0.0524666 -0.0038663528 -0.012084689
0001e0 c9 6b cc 3b f0 a3 df bb f0 75 3a bd 84 d7 8a bd
       0.006238435 -0.006824963 -0.04552263 -0.067793876
0001f0 62 6f 5e bd 25 d9 46 bc 89 b2 41 bd df 2b ac bc
       -0.05430544 -0.012136732 -0.047289405 -0.021017013
000200 d4 16 1b 3e 27 3f 03 bd e5 9e f5 3c 5f 59 d9 3d
       0.15145427 -0.03204265 0.029982993 0.10612749
000210 50 b8 42 3d 83 ab ce 3d 2d 9c a9 3c 86 f3 41 bd
       0.047539055 0.10091307 0.020704353 -0.047351383
000220 50 6b b7 bd 1a b3 6e 3a f3 f1 e6 3d f5 4f 15 3e
       -0.08956015 0.00091056677 0.11276617 0.14581282
000230 80 2d da 3d ee 5a af 3c f7 04 9e 3d 3a 71 33 3c
       0.1065321 0.021405663 0.07715791 0.010952288
000240 55 24 39 3d 2b 23 51 bd 8a 53 04 be cb c3 08 3d
       0.045200665 -0.05105893 -0.12922493 0.033389848
000250 af 88 93 3d b4 24 6a bd 41 ff 8c 3c 5c e1 55 3d
       0.07203805 -0.05716391 0.017211558 0.052216873
000260 31 92 7e 3c 5e d1 08 bd 89 3b 80 bd 7f d4 90 bc
       0.015537784 -0.033402793 -0.062613554 -0.017679451
000270 a8 f4 a2 bd 2a db c3 bc 60 d6 bb bd ed 6f 5a bc
       -0.07956821 -0.023908217 -0.09171748 -0.013332349
000280 45 e0 17 3d e4 5b cc 3c 85 a7 05 be 3f de 4b be
       0.037079114 0.02494616 -0.13052185 -0.19908999
000290 70 59 06 bd 89 a0 be bd da cf 5a 3c 71 a0 4f 3d
       -0.032800138 -0.093079634 0.01335522 0.05069012
0002a0 fc be fc 3c 05 c3 b5 3c 56 59 e1 bd 39 8d c6 bd
       0.030852787 0.02218772 -0.110033676 -0.09694905
0002b0 da 3e 00 be e5 55 8f 3d 6b 30 8e 3d d4 0f 56 bd
       -0.12523976 0.06998805 0.06942829 -0.05226119
0002c0 4d 74 2c 3c aa fd cf bc 5c 80 04 3e 78 54 16 3d
       0.010525775 -0.025389511 0.1293959 0.03670165
0002d0 0f c9 05 bd fb e2 3b bd 44 99 c3 3c 2d 17 a2 3d
       -0.032662448 -0.045870762 0.023876794 0.07914577
0002e0 8c d3 52 3d a6 86 9f 3b 83 4a 93 3d b0 90 52 3c
       0.051471278 0.0048683463 0.07191946 0.012851879
0002f0 f4 00 30 3d cf 04 24 3d 7f 68 e4 3d c4 9a e9 3d
       0.04296966 0.04004365 0.111527435 0.11406472
000300 8f 4e a3 3c 37 24 1b bd 87 ee f2 bd 12 25 8f 3d
       0.01993492 -0.037876334 -0.11861902 0.069894925
000310 aa 6a c0 3d d0 51 30 3e d9 e7 39 be a5 c0 e7 bc
       0.093953446 0.17218709 -0.18154849 -0.028290102
000320 06 b6 8a 3d ff 36 08 3d 7b 0d ed bb a5 35 7d bd
       0.067729995 0.033255573 -0.007234273 -0.061818738
000330 96 2e a4 3c 36 c4 20 3d 9c 4d dc 3d 18 aa 39 3e
       0.020041745 0.03924962 0.1075699 0.18131292
000340 61 15 99 3d 68 3d a2 3d 01 6b 82 bc 1c 99 55 bc
       0.07474781 0.079218686 -0.015920164 -0.013036992
000350 81 72 9e 3d 2b a1 4b 3c 87 ad df 3b 3a 1c a5 3d
       0.07736684 0.012428562 0.006826106 0.080620244
000360 3d be 74 3d 94 f7 10 3c f4 39 11 bd 92 9f ae 3d
       0.059751738 0.00884809 -0.03545566 0.08526529
000370 fd 64 f4 3c 35 72 aa bc 10 cc 01 be b8 a7 97 ba
       0.029833311 -0.020806411 -0.126755 -0.001157037
000380 ce 4e 72 3c 84 9b 5c bd cc a0 2f be ad 9c f9 bd
       0.014789296 -0.05385925 -0.17151183 -0.12188087
000390 f3 bf 4b 3c 55 c7 6e 3d 11 0a 67 3d a1 6a 63 3d
       0.012435901 0.058295567 0.056406084 0.05552161
0003a0 04 4f 5d bd fa b0 67 be 05 01 1d bd c0 1a 62 3c
       -0.054030433 -0.22626105 -0.03833105 0.013800323
0003b0 90 fc 8c bd e0 6c 95 3d ed 8f fc 3c 2c d1 ed 3c
       -0.0688411 0.07296157 0.030830348 0.029030405
0003c0 50 d4 18 bd 5a 5a e8 3d 6c b8 02 3e a3 3b 7a bc
       -0.037311852 0.11345358 0.12765664 -0.015273008
0003d0 5e 47 02 3d d0 ae b8 3c 76 65 c2 bd c7 12 93 bd
       0.031806342 0.022544295 -0.094920084 -0.07181316
0003e0 85 d8 6c bd 85 87 cd 3c 46 47 9f bd f0 ee 98 bd
       -0.057823677 0.025089035 -0.07777266 -0.07467449
0003f0 f3 6d 26 3c ec af 94 bd 70 48 cd bc 43 0c 29 bc
       0.01015805 -0.07260117 -0.025058955 -0.010317865

Layer4.0.bias f4 [32]
000000 7c 8d 42 bd d4 6c 0f 3c 73 12 44 bc ee e3 11 3d
       -0.04749821 0.008753974 -0.011967289 0.03561776
000010 e5 44 b1 bb 3f a4 a3 bc 71 1e a7 bc ef dc f1 3c
       -0.005409824 -0.01997578 -0.020400258 0.029524295
000020 f5 95 22 bd e7 31 07 3d c1 4b 7a 3d 4e ba 5c 3d
       -0.03969379 0.033006575 0.0611074 0.05388861
000030 e9 3e 5a bc 21 bf 28 bd a7 97 90 3d 60 ca 48 bd
       -0.013320663 -0.0411979 0.070601754 -0.049021125
000040 35 45 99 bd 1a 44 b0 bc 47 eb 3c 3c 89 e5 1f 3d
       -0.07483903 -0.021516848 0.011530704 0.03903726
000050 32 06 b5 bd 2b 4f 20 bc 8f 9e 6b bd d7 51 22 bd
       -0.08839072 -0.0097845 -0.05752426 -0.03962883
000060 b2 a0 45 bd 8f 9f 02 3c b1 9d c5 3c 1f b6 2c bd
       -0.048248954 0.007972612 0.024123045 -0.04216587
000070 75 10 a3 bd bf 9f 2d 3d 98 58 15 3d 8b c1 29 bd
       -0.07962123 0.042388674 0.036461443 -0.041444343

Layer4.2.weight f4 [32]
000000 55 72 86 3f 52 04 7c 3f 18 d4 84 3f 4a d6 80 3f
       1.0503641 0.9844409 1.0377226 1.0065396
000010 8a 36 77 3f 53 e6 6d 3f 9b e0 83 3f 25 16 84 3f
       0.96567595 0.9292957 1.0302919 1.0319258
000020 ac 2b 83 3f 83 04 84 3f 06 dd 82 3f 12 97 83 3f
       1.0247703 1.0313877 1.0223701 1.0280478
000030 04 e4 76 3f c6 ee 78 3f 6d 24 82 3f d5 7f 7f 3f
       0.96441674 0.9723934 1.0167366 0.9980443
000040 92 b9 83 3f f7 47 7f 3f 81 9c 7d 3f f0 18 7d 3f
       1.0291007 0.99719185 0.9906693 0.98866177
000050 37 ee 80 3f 9a c6 7f 3f f5 ac 84 3f 09 a2 80 3f
       1.0072697 0.99912417 1.0365282 1.0049449
000060 a3 c4 82 3f 8f ab 88 3f 8c de 6c 3f 8a d6 7c 3f
       1.0216259 1.0677356 0.9252708 0.9876486
000070 d9 37 80 3f c9 f1 81 3f f0 aa 70 3f 93 ad 77 3f
       1.0017043 1.0151912 0.9401083 0.9674923

Layer4.2.bias f4 [32]
000000 93 cd 75 3d 91 7b 8f 3d f8 21 f1 3c e5 69 c7 3d
       0.060010504 0.0700599 0.029435143 0.09736995
000010 c2 53 36 bd d9 ca b1 bc bd 84 c1 3c d2 8b 16 be
       -0.04451347 -0.02170317 0.023622865 -0.14701775
000020 a6 fa 32 bd 36 94 a3 3c 37 3f 8e bd 96 6c f9 bb
       -0.04369607 0.019968133 -0.06945651 -0.0076118214
000030 ed c0 b9 3d 5d 9e 5c bd c0 55 07 3d 5a b6 93 3c
       0.09070001 -0.053861964 0.033040762 0.018031288
000040 4f b2 41 3d 2f 1c c3 bc b3 88 9f 3c a3 8f a8 3b
       0.04728919 -0.02381715 0.019474363 0.005144076
000050 7f 51 f0 bc f0 08 1b 3d 1f 6c e9 3b f7 37 9f bd
       -0.029335735 0.03785032 0.0071234847 -0.07774346
000060 fd 1e 3c bd 0b bb 80 3d b2 11 33 bd 30 3b 90 38
       -0.04592799 0.062856756 -0.043718047 6.8774796e-05
000070 3f 27 3d 3d 6b a0 39 3c 0e cd a9 bb 50 43 60 bd
       0.046180006 0.0113297505 -0.005181915 -0.054751694

Layer4.2.running_mean f4 [32]
000000 28 07 af 3f cd a7 89 3f 51 af a4 3f 6e a0 89 3f
       1.3674059 1.0754334 1.2866002 1.0752084
000010 56 fa 6c 3f fb 3f 3b 3f 86 07 8a 3f 17 67 8a 3f
       0.9256948 0.731445 1.0783546 1.081271
000020 d5 b7 2e 3f 92 8f 71 3f ed 94 a5 3f 9d e0 94 3f
       0.68249255 0.94359696 1.2936074 1.1631047
000030 ff f5 9a 3f ec 3d 63 3f a0 d1 8a 3f 38 21 5e 3f
       1.2106322 0.8876636 1.0845222 0.8676944
000040 3d 52 3c 3f 65 82 5a 3f f2 44 6f 3f 51 1a 86 3f
       0.73562986 0.85355216 0.9346458 1.0476781
000050 4b 37 1c 3f da d4 1d 3f 98 b9 48 3f 03 b4 9f 3f
       0.6102187 0.6165291 0.78408194 1.247681
000060 0e 07 5b 3f a6 33 80 3f 7d c1 3b 3f ac 50 8a 3f
       0.8555764 1.0015762 0.73342115 1.0805869
000070 06 7d 5d 3f 29 b8 4a 3f 09 fd 15 3f 00 4b 85 3f
       0.86518896 0.79187256 0.58589226 1.0413513

Layer4.2.running_var f4 [32]
000000 f0 59 43 40 12 b4 1e 40 5d 25 55 40 13 c4 25 40
       3.0523643 2.4797406 3.3304055 2.5900924
000010 57 42 f2 3f 4c 1c 9d 3f b6 83 0e 40 0f a3 07 40
       1.8926495 1.227426 2.226789 2.1193273
000020 01 33 c2 3f 2e d7 f0 3f c8 79 18 40 f5 3f 2a 40
       1.5171815 1.8815668 2.382433 2.6601536
000030 5a c9 1a 40 50 04 e0 3f aa 18 18 40 ce 11 02 40
       2.4185395 1.7501316 2.3765054 2.0323367
000040 8c 77 dd 3f 56 77 d4 3f 49 b5 06 40 9d fb 1e 40
       1.7302108 1.6598918 2.1048148 2.4841073
000050 5c 57 83 3f a0 10 81 3f 97 f5 c8 3f 3c f8 32 40
       1.0261035 1.0083199 1.5699948 2.796401
000060 7c f4 ed 3f 3a 51 0c 40 63 ad d4 3f d5 8c 03 40
       1.8590236 2.1924577 1.6615413 2.0554707
000070 08 50 e9 3f 28 7e d1 3f 19 53 aa 3f 0d 1b 09 40
       1.8227549 1.6366625 1.3306609 2.142276
